src/best_model_8.pth (torch, 804542 bytes, 10 tensors)

0.weight f4 [256, 6]
-0.002129602 1.1287836 0.5135473 14.210728 -0.0363481 7.041668 0.09276727 -3.5768168
-2.416566 3.5792365 -0.82704407 -1.6184161 -0.3948043 -0.118237585 0.36124653 -0.3165156
-0.07532394 -0.1174027 0.03368189 0.1870292 2.6817813 -8.2312155 -0.442906 -12.4951935
-0.41418514 -0.21917206 0.8099059 -0.1296641 0.06513212 -4.383299 0.053452924 0.9953235
3.8318439 -17.037565 0.05397296 -5.7622695 -0.006010806 0.32555088 -0.0908964 -0.16034758
-0.24953802 -0.08963832 0.030574188 -0.06387738 1.3249601 -7.561358 0.13855016 -11.666181
-0.28769696 -0.23198703 0.14191085 -0.13338926 -0.036007434 0.25976938 -0.00129944 -0.59830165
-1.3768002 18.055895 0.14180325 7.0032134 -0.053968728 0.06308976 0.20936906 -0.1013456
-0.26982355 -0.21468158 -0.31929272 -0.33966327 0.19910222 0.08824864 -0.015281737 0.34612125
0.080109365 0.23507634 3.4176462 -0.72881544 -0.3530146 3.7812595 0.021384064 -0.13908333
-0.92985463 -7.4752736 -0.21516968 6.449006 -0.12854339 -0.23712857 0.08706857 -0.20863104
-0.17364933 0.22999386 -0.032393456 0.2110131 2.5244946 14.255178 0.33647016 6.088472
-0.0038515304 0.5782594 -0.9375691 19.878763 0.00057276024 5.584298 -0.3698345 0.23644203
0.25298756 0.062326163 -0.33816957 -0.39444888 -0.0029254528 -1.0443273 -38.814114 -15.2594
0.567719 -0.43791386 -0.12630028 -1.3655795 1.2148957 -0.72170097 -0.35184684 4.8675985
-0.13134608 0.118641496 0.21081877 0.37819928 -0.3183628 -0.0911558 -0.39814657 -0.085913606
-1.4293327 -0.050551943 0.40818378 -7.36912 0.040200602 2.6975029 -11.874097 -4.072371
-0.76829004 -1.3453746 -0.10549262 -0.3097515 -0.23925783 -0.30760428 -0.21693024 -0.06748909
-0.3451355 -0.3648059 0.03199339 -0.10811317 0.06606528 0.011071354 -0.27510914 -0.38353983
0.1596036 0.27734447 -0.19276333 0.08672649 -0.095964976 0.16972539 -0.006210785 0.029227577
-0.29254726 0.15905452 -0.010705259 -0.31120414 2.4468918 4.8580084 0.25377607 6.6593738
-0.28116298 -0.32809532 0.109395266 0.24139029 -0.20301946 0.22993875 -0.01154971 -0.6631731
-0.70983493 22.252344 0.12908314 6.085153 -0.38642687 0.17665696 -5.8164086 14.419341
-0.9288967 5.0636086 -0.0339142 0.2769824 -0.39790645 0.23944831 -0.4106225 0.00037239818
0.010727388 -0.30657938 0.8263116 -8.181995 0.19112849 -13.817808 -0.32450074 0.3281476
0.1908676 -0.19067824 -0.2980736 -0.22689733 0.015628822 0.20371735 4.0660863 -9.327851
-0.2851895 -11.528583 0.016303444 1.1030544 -11.632784 1.1880442 -0.3238884 -3.7656956
-0.41658723 0.02415582 2.8171527 15.103978 0.3857564 5.3446374 -0.39215553 0.22043264
-0.41465136 -0.17717206 -0.025409572 -2.99437 -0.13849473 -0.029001296 0.038268805 -0.041570663
-0.0040484667 -0.22656363 -0.044909056 1.7623625 3.8565004 4.318514 -0.2996202 5.8861513
-0.03129069 1.2687024 7.1156 6.5321546 0.5521357 5.2794695 -0.3031175 0.5069929
-9.44317 0.89940965 0.41811684 -7.3759413 -0.28166175 0.32623208 -0.3898785 -0.375346
00000000: cb90 0bbb fb7b 903f d677 033f 245f 6341
00000010: bfe1 14bd 5855 e140 c4fc bd3d 91ea 64c0
00000020: 04a9 1ac0 3612 6540 29b9 53bf 4228 cfbf
00000030: ca23 cabe 8c26 f2bd 4ef5 b83e 550e a2be
00000040: 7043 9abd d470 f0bd 06f6 093d 9584 3f3e
00000050: 4ea2 2b40 0fb3 03c1 93c4 e2be 50ec 47c1
00000060: 1310 d4be a46e 60be fe55 4f3f aac6 04be
00000070: fd63 853d fc43 8cc0 74f1 5a3d 85cd 7e3f
00000080: ee3c 7540 ef4c 88c1 c012 5d3d 8364 b8c0
00000090: 4cf6 c4bb 9bae a63e e427 babd 2832 24be
000000a0: e586 7fbe 4c94 b7bd b876 fa3c 25d2 82bd
000000b0: 4b98 a93f a5f6 f1c0 18e0 0d3e ada8 3ac1
000000c0: 044d 93be 028e 6dbe 1451 113e 3297 08be
000000d0: 887c 13bd 7e00 853e f951 aaba 4c2a 19bf
000000e0: fd3a b0bf 7972 9041 df34 113e 531a e040
000000f0: 500e 5dbd 3435 813d d864 563e 488e cfbd
00000100: 5026 8abe 7dd5 5bbe 567a a3be 58e8 adbe
00000110: 74e1 4b3e b4bb b43d 4060 7abc ce36 b13e
00000120: 6110 a43d dab7 703e b7ba 5a40 a693 3abf
00000130: 54be b4be 2800 7240 a22d af3c dc6b 0ebe
00000140: f40a 6ebf 7135 efc0 7155 5cbe 425e ce40
00000150: e1a0 03be d5d1 72be 0251 b23d 60a3 55be
00000160: 21d1 31be 8383 6b3e 00af 04bd d113 583e
00000170: 5291 2140 3615 6441 d145 ac3e c3d4 c240
00000180: f569 7cbb cf08 143f 8704 70bf b507 9f41
00000190: 4a25 163a 92b2 b240 f35a bdbe dc1d 723e
000001a0: 9687 813e b849 7f3d 9024 adbe 34f5 c9be
000001b0: f4b8 3fbb 84ac 85bf a741 1bc2 8126 74c1
000001c0: 0856 113f 3f36 e0be dc54 01be 4fcb aebf
000001d0: b481 9b3f 65c1 38bf 4525 b4be 5ec3 9b40
000001e0: 967f 06be 50fa f23d e0e0 573e 56a3 c13e
000001f0: 7300 a3be e4af babd ded9 cbbe 79f3 afbd
00000200: 60f4 b6bf 8e0f 4fbd 77fd d03e d5cf ebc0
00000210: 63a9 243d e3a3 2c40 4dfc 3dc1 dd50 82c0
00000220: a8ae 44bf 3c35 acbf 840c d8bd c097 9ebe
00000230: 0100 75be 4f7e 9dbe f622 5ebe b837 8abd
00000240: 9ab5 b0be d7c7 babe 800b 033d 706a ddbd
00000250: 3c4d 873d a064 353c 1bdb 8cbe 555f c4be
00000260: 206f 233e 1800 8e3e c063 45be a89d b13d
00000270: 4989 c4bd 7ecc 2d3e d783 cbbb ac6e ef3c
00000280: c1c8 95be 30df 223e 1c65 2fbc 2656 9fbe
00000290: e099 1c40 ce74 9b40 f0ee 813e 9719 d540
000002a0: 98f4 8fbe 1cfc a7be a00a e03d 042f 773e
000002b0: 55e4 4fbe 1075 6b3e ff3a 3dbc b6c5 29bf
000002c0: beb7 35bf cd04 b241 5f2e 043e 93b9 c240
000002d0: bed9 c5be 90e5 343e 0520 bac0 9fb5 6641
000002e0: 2dcc 6dbf 1509 a240 9ee9 0abd a3d0 8d3e
000002f0: 65ba cbbe f031 753e 1d3d d2be 703e c339
00000300: edc1 2f3c f9f7 9cbe 2889 533f 74e9 02c1
00000310: 30b7 433e be15 5dc1 f624 a6be f602 a83e
00000320: cc72 433e 2841 43be 1a9d 98be c657 68be
00000330: 0408 803c 489b 503e 611d 8240 e13e 15c1
00000340: 5c04 92be 1375 38c1 cd8e 853c e330 8d3f
00000350: e21f 3ac1 d511 983f b3d4 a5be 2801 71c0
00000360: ec4a d5be 6de2 c53c 3b4c 3440 e5a9 7141
00000370: dd81 c53e 4507 ab40 9cc8 c8be 18b9 613e
00000380: 2f4d d4be 986c 35be bc27 d0bc c2a3 3fc0
00000390: 90d1 0dbe 2094 edbc c0bf 1c3d 0046 2abd
000003a0: 00a9 84bb 4c00 68be 8ff2 37bd 1895 e13f
000003b0: e7d0 7640 4431 8a40 d267 99be 5a5b bc40
000003c0: ab2a 00bd d764 a23f ffb2 e340 6907 d140
000003d0: c458 0d3f 6af1 a840 3832 9bbe 49ca 013f
000003e0: 3917 17c1 b63f 663f 6913 d63e b607 ecc0
000003f0: f835 90be e407 a73e 289e c7be 5a2d c0be

0.bias f4 [256]
-23.45776 -38.274044 -0.32015508 -2.6277394 -0.379861 36.784298 -0.08113501 0.92367935
0.30539072 -17.683842 0.27602178 -0.3534449 50.472576 40.20272 0.101336315 12.8457365
-26.636602 0.26928794 -25.249933 25.141441 -0.19879156 -0.33134967 -61.790062 0.05595541
0.08930251 0.06678966 0.32454732 41.77203 -0.014947683 -26.50595 -17.926748 -0.0007630756
-3.4282048 0.33520508 8.987083 -50.765133 16.17889 0.08668651 0.038556367 -16.783312
38.65264 -2.4848018 -0.030731708 -0.15489516 -9.475436 -0.06452699 0.2012887 23.27643
-0.22196183 1.9729527 0.15981233 -53.361217 0.30848414 -56.627712 -15.623196 -28.260035
-0.09266001 -0.29755503 -0.1981544 -0.19886407 58.137432 0.37633085 0.16206539 14.528138
-44.901012 0.42009696 0.05719033 -0.2525884 0.2362479 -0.07448697 0.20883363 -10.586505
0.40358073 6.6473827 18.487768 -12.992045 -31.482693 -0.26420584 48.297245 7.8574886
-31.27397 -6.506557 -0.46619675 -27.253885 -3.8309977 -3.2205648 -1.2945346 -0.33930844
21.033087 -57.585167 46.372253 0.1858641 0.44088826 -0.13357294 55.05635 79.47501
0.0026831767 -61.774883 0.28460103 76.99962 0.4007827 0.055489093 9.517259 52.5731
-0.40620717 -0.34240896 0.22337049 35.505478 -0.35170966 0.5627059 0.24211156 32.182262
0.28952438 -19.549414 0.0673812 -0.26362354 -2.2649171 -29.637701 29.431927 -0.3039532
0.27891248 0.038129747 -0.09613463 36.983013 -29.093885 10.832741 68.16691 57.99384
-17.111134 0.045760505 0.036699235 -0.100582354 0.0027817339 -52.76626 0.28908366 10.249919
-0.41580567 74.30871 -18.658266 -0.28920928 0.033012956 -11.765272 0.16995376 -0.021833092
10.936818 -5.0762706 -0.23698819 -10.658541 -9.409207 24.250061 0.21179557 0.0013150871
-67.84747 -0.15812972 -32.61611 0.3440051 -1.5673413 -32.718525 23.757406 66.98754
-0.381401 22.107948 0.22897553 -66.4333 -0.566342 -0.058939427 -0.83503836 -3.177914
-34.031273 10.083537 -21.677328 -0.21985152 -16.458302 2.5048711 -2.4616387 -66.181404
-30.993935 6.386545 -65.803276 0.25945723 0.09874907 -0.12119165 -31.903357 -15.795786
-36.225033 27.474834 39.27744 0.429743 -0.21462305 -16.47817 0.32401663 16.788746
-3.6955051 -18.122341 -11.070449 -0.7551512 20.466501 -7.9218736 -9.600492 -3.2587357
0.14511698 -70.84112 -5.765483 -68.07233 45.706852 0.09052265 -16.467916 -24.223837
-0.16120721 -17.44874 -4.02498 4.078075 42.530354 -2.9222877 -30.348877 3.9130158
-1.1305157 -59.47134 -29.802301 -1.757685 -1.3162044 -9.70907 -15.518456 -11.615013
8.891978 0.16367543 -0.099689305 0.35874277 -32.511967 53.90553 -72.620056 -0.25034368
-27.747032 -0.027162164 -0.05080256 0.15161663 -12.004432 0.28114662 74.42492 0.32456893
-3.4632103 13.126353 -39.841145 10.070776 7.870647 -19.999208 -0.06811783 -39.746674
-39.63085 5.2834816 0.38322252 42.134308 -0.30520248 -34.26576 0.13088097 -73.134995
00000000: 7ea9 bbc1 9f18 19c2 5eeb a3be e22c 28c0
00000010: 247d c2be 1f23 1342 1d2a a6bd 4076 6c3f
00000020: 2c5c 9c3e 8278 8dc1 ba52 8d3e bbf6 b4be
00000030: ebe3 4942 96cf 2042 6a89 cf3d 2388 4d41
00000040: c317 d5c1 1ce0 893e ddff c9c1 ac21 c941
00000050: 0490 4bbe aaa6 a9be 0629 77c2 8031 653d
00000060: 3ce4 b63d 04c9 883d 112b a63e 8f16 2742
00000070: 20e7 74bc 300c d4c1 fb69 8fc1 2309 48ba
00000080: b567 5bc0 00a0 ab3e 18cb 0f41 7f0f 4bc2
00000090: 5e6e 8141 b288 b13d 48ed 1d3d 3944 86c1
000000a0: 4e9c 1a42 fe06 1fc0 10c1 fbbc d69c 1ebe
000000b0: 639b 17c1 ba26 84bd a01e 4e3e 2136 ba41
000000c0: f649 63be b789 fc3f d8a5 233e e371 55c2
000000d0: a2f1 9d3e c782 62c2 9cf8 79c1 8d14 e2c1
000000e0: 88c4 bdbd 2259 98be fde8 4abe 06a3 4bbe
000000f0: bb8c 6842 70ae c03e 78f4 253e 4173 6841
00000100: a39a 33c2 f316 d73e 6840 6a3d 4453 81be
00000110: f8ea 713e a08c 98bd 7cd8 553e 5362 29c1
00000120: 22a2 ce3e 5cb7 d440 f3e6 9341 6bdf 4fc1
00000130: 8edc fbc1 fd45 87be 6130 4142 8c70 fb40
00000140: 1731 fac1 b735 d0c0 57b1 eebe f507 dac1
00000150: 112f 75c0 bc1d 4ec0 4fb3 a5bf d6b9 adbe
00000160: c343 a841 3657 66c2 307d 3942 2953 3e3e
00000170: 1bbc e13e 58c7 08be b439 5c42 35f3 9e42
00000180: 3cd8 2f3b 7b19 77c2 3ab7 913e ceff 9942
00000190: 6433 cd3e 8848 633d b146 1841 db4a 5242
000001a0: 63fa cfbe 3a50 afbe 3cbb 643e 9c05 0e42
000001b0: 4a13 b4be 7e0d 103f 18ec 773e a3ba 0042
000001c0: 8a3c 943e 3365 9cc1 28ff 893d aaf9 86be
000001d0: 67f4 10c0 031a edc1 9674 eb41 c19f 9bbe
000001e0: 9ecd 8e3e f02d 1c3d 3ce2 c4bd 9bee 1342
000001f0: 47c0 e8c1 e852 2d41 7555 8842 b1f9 6742
00000200: 9ae3 88c1 5e6f 3b3d f051 163d 1ffe cdbd
00000210: c04d 363b a610 53c2 c602 943e abff 2341
00000220: 7be4 d4be 0f9e 9442 2144 95c1 3d13 94be
00000230: 9838 073d 8e3e 3cc1 5c08 2e3e 50db b2bc
00000240: 35fd 2e41 cf70 a2c0 08ad 72be 6289 2ac1
00000250: 1d8c 16c1 2000 c241 f0e0 583e 005f ac3a
00000260: e8b1 87c2 c2ec 21be e676 02c2 7021 b03e
00000270: a49e c8bf c5df 02c2 2b0f be41 9ff9 8542
00000280: fe46 c3be 14dd b041 9078 6a3e d9dd 84c2
00000290: cafb 10bf 786a 71bd 13c5 55bf f162 4bc0
000002a0: 0620 08c2 2b56 2141 2b6b adc1 c220 61be
000002b0: 9aaa 83c1 cf4f 2040 7d8b 1dc0 e15c 84c2
000002c0: 94f3 f7c1 945e cc40 479b 83c2 94d7 843e
000002d0: f43c ca3d 5433 f8bd 133a ffc1 8abb 7cc1
000002e0: 6fe6 10c2 76cc db41 191c 1d42 4607 dc3e
000002f0: 25c6 5bbe 4bd3 83c1 82e5 a53e 5a4f 8641
00000300: 2883 6cc0 8efa 90c1 8f20 31c1 9751 41bf
00000310: 65bb a341 fd7f fdc0 9d9b 19c1 208f 50c0
00000320: 8c99 143e a7ae 8dc2 d67e b8c0 0825 88c2
00000330: d1d3 3642 f063 b93d 4bbe 83c1 6bca c1c1
00000340: 8113 25be 0597 8bc1 a3cc 80c0 977f 8240
00000350: 151f 2a42 c306 3bc0 80ca f2c1 da6e 7a40
00000360: bdb4 90bf a7e2 6dc2 1d6b eec1 d2fb e0bf
00000370: 6379 a8bf 5a58 1bc1 994b 78c1 18d7 39c1
00000380: 8b45 0e41 889a 273e e829 ccbd 22ad b73e
00000390: 410c 02c2 439f 5742 783d 91c2 0c2d 80be
000003a0: ecf9 ddc1 3083 debc 5816 50bd 6441 1b3e
000003b0: 2712 40c1 73f2 8f3e 8fd9 9442 e62d a63e
000003c0: 3da5 5dc0 8b05 5241 555d 1fc2 e621 2141
000003d0: 57dc fb40 61fe 9fc1 5c81 8bbd 98fc 1ec2
000003e0: fe85 1ec2 4812 a940 be35 c43e 8889 2842
000003f0: 8043 9cbe 2310 09c2 a905 063e 1e45 92c2

2.weight f4 [256, 256]
0.00639419 -0.058561176 -0.029764295 -0.009544635 0.041866615 0.06865049 0.06146673 -0.012463453
0.047583207 0.0047151307 -0.037275612 0.019810066 -0.08548228 -0.016755376 -0.025325023 -0.06034916
-0.033317078 0.043735124 -0.049684137 -0.05252011 -0.020767763 -0.044807505 -0.028403316 -0.026051283
0.042992905 -0.0059214607 0.012777671 -0.0014429111 0.04137878 -0.08904721 -0.0551621 0.046228707
-0.0394169 -0.025341094 -0.008111309 -0.03301137 0.013480565 -0.043667056 0.0061783046 -0.053143397
0.020782499 0.056767832 -0.050145663 -0.03367611 -0.007567892 -0.08859289 -0.052713163 -0.044955812
0.00097353756 -0.08975385 0.051296487 0.009099446 0.028214 -0.031771813 -0.014817129 -0.041300505
0.030545957 -0.020631209 -0.028178528 -0.029807448 -0.06343576 0.013718016 0.023288593 -0.04882058
0.015559574 0.043947436 0.04461178 0.027371109 0.016149804 0.025036633 0.052868858 -0.08469897
0.027968846 -0.03172715 0.02485695 -0.081055045 -0.061183736 -0.029323727 0.030217556 -0.09243063
-0.030577784 -0.0650738 -0.013427913 -0.06996078 -0.045335796 -0.09289067 -0.061837316 -0.038591787
0.009307997 0.03492742 -0.052754465 -0.045963712 -0.07324294 -0.056928076 -0.017952612 -0.09360249
-0.004718527 0.052722707 0.003907159 -0.023346396 -0.024735443 0.050766096 -0.025984434 -0.031237464
0.052681305 0.05904276 -0.055829324 -0.007519703 -0.0015806705 -0.03972245 0.033970453 -0.06686817
0.018779807 -0.08866416 0.051996067 -0.054482035 -0.08255041 -0.06693657 -0.041753184 -0.042007126
0.039754674 -0.0012400746 0.058081716 0.00082042813 -0.054543115 0.026785603 -0.036368374 -0.03373081
0.0121506 -0.0071243197 0.05142753 -0.0015098527 0.015568927 0.021890724 0.027778164 0.0102963075
-0.051220298 -0.006281769 -0.0083248 0.020370252 -0.0004073158 -0.034649793 -0.0463987 0.027583241
-0.08215165 0.026902486 -0.04148724 0.028691173 0.005517213 0.0035789332 -0.05111543 -0.0350734
-0.059461698 0.0080821365 -0.048279613 -0.0039925873 0.0027071706 -0.04909932 -0.061608285 0.007862148
0.018162712 -0.0809546 0.012767248 -0.054791152 -0.059512347 0.0051824003 -0.093026154 -0.020906968
-0.029585302 -0.027937302 -0.017075464 -0.05718843 -0.00040679937 -0.022657756 -0.02039039 -0.047548883
-0.06244553 -0.042560637 -0.026832856 0.041059807 -0.030104704 -0.01774197 -0.027485803 -0.029417207
-0.005876095 0.010243282 -0.03634652 -0.08102571 0.041285023 0.023726452 -0.038385436 -0.016762972
-0.07164872 -0.06098661 -0.07012978 0.0030877516 -0.014866698 -0.044305246 -0.092219494 0.012886531
-0.0138588175 0.015331579 -0.021809913 0.033358246 0.024646198 -0.014231026 -0.0033649004 -0.03702359
-0.010854602 0.004129716 -0.010222529 0.029142331 -0.026694028 0.005851113 -0.05052521 -0.036910832
-0.064761646 -0.084962554 -0.07981874 -0.034305274 0.030595228 0.018464623 0.049397223 0.0043403064
-0.029220417 0.005276583 0.056463473 -0.061610132 -0.085707664 -0.055210732 0.012938172 -0.0024521053
-0.025801916 -0.019672818 0.045069374 -0.03515804 -0.04396545 0.0339766 -0.050258983 -0.045868844
-0.0074615115 -0.072362974 -0.030922918 -0.07745696 -0.022401601 -0.008183701 0.021308847 0.024412027
-0.012390837 -0.020295965 -0.0394207 -0.086735316 0.051018544 -0.087760426 -0.046622366 -0.08704554
00000000: 5a86 d13b d8dd 6fbd 40d4 f3bc 1a61 1cbc
00000010: 547c 2b3d a198 8c3d 8ac4 7b3d 8333 4cbc
00000020: 9ce6 423d 6281 9a3b 50ae 18bd b848 a23c
00000030: 5511 afbd 9242 89bc 6c76 cfbc ae30 77bd
00000040: 7d77 08bd 9a23 333d 9881 4bbd 541f 57bd
00000050: 2821 aabc 1388 37bd 12ae e8bc 8069 d5bc
00000060: 5419 303d d008 c2bb 7059 513c 1020 bdba
00000070: cc7c 293d 625e b6bd a7f1 61bd 505a 3d3d
00000080: 9e73 21bd 2098 cfbc 4ce5 04bc ee36 07bd
00000090: 96dd 5c3c 3adc 32bd 6073 ca3b e4ac 59bd
000000a0: 0f40 aa3c 6385 683d 8a65 4dbd f6ef 09bd
000000b0: 14fc f7bb 3070 b5bd c2e9 57bd 9623 38bd
000000c0: 0035 7f3a ded0 b7bd 441c 523d d815 153c
000000d0: 0c21 e73c 2923 02bd 8bc3 72bc b82a 29bd
000000e0: 843b fa3c c802 a9bc a8d6 e6bc c02e f4bc
000000f0: 9cea 81bd 88c1 603c b8c7 be3c 17f8 47bd
00000100: 95ed 7e3c 3a02 343d d8ba 363d 6039 e03c
00000110: 984c 843c a019 cd3c 048d 583d a776 adbd
00000120: ec1e e53c 54f4 01bd cda0 cb3c 3000 a6bd
00000130: cc9b 7abd 5038 f0bc cf8a f73c 454c bdbd
00000140: 437e fabc 6a45 85bd c000 5cbc 9947 8fbd
00000150: 07b2 39bd 773d bebd 2049 7dbd 6c12 1ebd
00000160: 9280 183c 0e10 0f3d 1115 58bd 7244 3cbd
00000170: 6500 96bd 6a2d 69bd 5b11 93bc aab2 bfbd
00000180: e09d 9abb c4f3 573d a007 803b f140 bfbc
00000190: fca1 cabc 1cf0 4f3d 4fdd d4bc b6e5 ffbc
000001a0: 5ac8 573d d2d6 713d 4aad 64bd d767 f6bb
000001b0: 802e cfba 02b4 22bd 9a24 0b3d 2ef2 88bd
000001c0: 1cd8 993c 8e95 b5bd d4f9 543d 8e28 5fbd
000001d0: 3010 a9bd 0a16 89bd 6305 2bbd aa0f 2cbd
000001e0: ccd5 223d 008a a2ba 18e7 6d3d 0012 573a
000001f0: 9a68 5fbd 7b6d db3c 01f7 14bd 5129 0abd
00000200: 4f13 473c 2073 e9bb aca5 523d 40e6 c5ba
00000210: d014 7f3c 2d54 b33c 088f e33c d8b1 283c
00000220: 60cc 51bd 4cd7 cdbb be64 08bc 84df a63c
00000230: 008d d5b9 f1ec 0dbd 900c 3ebd 40f6 e13c
00000240: 203f a8bd 9a62 dc3c 86ee 29bd c009 eb3c
00000250: bdc9 b43b 898c 6a3b 6a5e 51bd 20a9 0fbd
00000260: 1c8e 73bd f06a 043c d8c0 45bd 40d4 82bb
00000270: c96a 313b 5e1c 49bd f858 7cbd 3dd0 003c
00000280: f8c9 943c 86cb a5bd b82d 513c b06c 60bd
00000290: 38c3 73bd 20d1 a93b 7f84 bebd 1745 abbc
000002a0: e05c f2bc c5dc e4bc d8e1 8bbc 6a3e 6abd
000002b0: b047 d5b9 c29c b9bc bf09 a7bc 9ec2 42bd
000002c0: e2c6 7fbd 1054 2ebd 94d0 dbbc 542e 283d
000002d0: 249e f6bc 9c57 91bc e829 e1bc 5bfc f0bc
000002e0: 428c c0bb 70d3 273c 17e0 14bd cff0 a5bd
000002f0: 7c1a 293d fa5d c23c 0c3a 1dbd 8052 89bc
00000300: 90bc 92bd 18cd 79bd 34a0 8fbd e05b 4a3b
00000310: 7393 73bc 6b79 35bd 93dd bcbd 0722 533c
00000320: 1810 63bc 4e31 7b3c b4aa b2bc a8a2 083d
00000330: d3e6 c93c 4029 69bc a985 5cbb 0ca6 17bd
00000340: 80d7 31bc 9252 873b 657c 27bc e6bb ee3c
00000350: 6fad dabc b1ba bf3b 86f3 4ebd d02f 17bd
00000360: c1a1 84bd d900 aebd 0278 a3bd b083 0cbd
00000370: d8a2 fa3c 1f43 973c be54 4a3d 2139 8e3b
00000380: a85f efbc 30e7 ac3b 3e46 673d e85a 7cbd
00000390: 8087 afbd a624 62bd a0fa 533c 80b3 20bb
000003a0: 8a5e d3bc e428 a1bc aa9a 383d e001 10bd
000003b0: 1e15 34bd 0c2b 0b3d 5ddc 4dbd f8e0 3bbd
000003c0: b27f f4bb 0a33 94bd 0f52 fdbc c1a1 9ebd
000003d0: 9083 b7bc ee14 06bc e48f ae3c bbfb c73c
000003e0: f002 4bbc b943 a6bc 9a77 21bd 49a2 b1bd
000003f0: d2f8 503d bdbb b3bd 18f7 3ebd ef44 b2bd

2.bias f4 [256]
-0.07772201 37.05073 -0.058541637 53.19834 -0.076633215 0.05541671 -0.067175075 -0.0661974
-49.511513 -0.1000752 -0.04305596 0.0018775709 -0.02781739 0.033084434 -0.0064642946 0.8523428
-0.036621697 0.007904802 0.029595131 -0.022118658 -0.030885655 79.54195 -19.918839 -0.03640188
66.43192 -2.3297768 9.50464 48.636772 -0.007106053 -0.031003775 -0.0676572 -0.071293235
46.318935 -51.92843 -0.04418996 -39.25339 49.709476 0.014255689 4.039434 -0.009882816
-0.036108937 0.008624353 -49.698524 -39.122406 -0.033369735 56.140087 -0.02028925 -0.004641089
0.0336317 48.058304 51.79178 -0.049257707 0.0020028355 0.0027492177 -0.05606784 0.020944662
0.039765086 -0.047515266 -59.150517 -44.75038 -0.03555429 -35.441864 -0.04163508 -0.060691185
-0.04778308 -47.767056 0.015467255 -30.485239 0.015901033 0.013809053 80.55908 -0.0065488676
-0.06485295 -0.054116987 -0.058114182 -23.60377 0.075380735 16.922209 -0.08772537 -0.042461935
-0.03866517 16.41622 -0.095575795 -0.063360624 -26.2188 32.057262 -0.019230813 6.5606956
-0.0015845106 -0.07363382 16.600216 -0.05306265 -29.694466 36.893932 -0.041254334 -0.07109354
-0.005121903 -0.047373477 -0.053748507 -23.35193 49.536205 37.52394 -0.09680194 -0.06363088
-0.0025441013 -0.063484184 50.072304 47.917286 -0.009302049 -62.783295 0.023440091 1.8141588
56.934074 -16.419834 -0.060739025 -57.39589 -0.08789138 -0.026899524 58.719627 -0.11618681
1.187454 -0.055132717 -68.24429 0.04570333 3.9979188 -24.501104 -0.09035196 -0.021811128
0.032285634 56.973663 -7.7951307 0.02725934 -0.031129971 -0.0663676 46.428143 -40.49983
-3.0681326 -56.98289 -0.070496775 0.025844157 45.917847 62.749073 -0.11979234 -0.0595
42.534897 -0.04057137 -0.015390918 0.014505523 -0.1844801 -0.06759847 -52.787994 -0.051958293
21.36448 -0.058126934 -0.0067225248 25.526424 -0.014651709 61.17924 0.021511706 -0.06262444
0.019751878 -0.04886256 -0.07518877 -0.03489708 -48.92818 -0.07986966 0.023450634 54.48355
-61.434402 -36.566906 49.95989 -0.9398691 0.020886647 -0.064660765 -71.86907 0.09170993
-49.221237 32.322807 -0.036666706 -0.06903984 -0.03951502 0.0061934628 -0.07480691 -0.0643307
-0.10837007 28.48659 -66.32277 -43.653175 0.15808915 1.9285606 0.043479703 -0.051874805
-0.05157221 43.44394 -2.9843452 -0.064103015 68.9758 -0.0828145 0.027280595 0.032552633
-0.086938195 0.008861055 -0.07591678 78.62031 59.78168 3.861313 -42.25539 1.1606536
-0.04980787 16.251257 -0.05089168 0.037906993 35.485435 -0.03061299 -0.015225791 -0.06055499
33.9374 -0.04769373 -0.041885868 48.99118 -0.026889335 -0.054498304 -28.276007 -0.04511796
-24.925795 0.0026973586 14.481281 -33.00575 -0.043773644 -0.14506215 15.033143 -0.06324894
0.7850503 -43.723454 -0.08844527 10.787802 -0.009406645 -0.048868183 -0.048042204 -17.483923
0.04430766 0.013441867 0.027169906 -42.59072 0.015058335 -0.0037363383 0.030415427 0.02077805
-0.0072829737 -0.0008918487 40.708702 31.448318 -0.05585776 -22.028625 0.041702025 0.03010934
00000000: b82c 9fbd f333 1442 5bc9 6fbd 1acb 5442
00000010: e0f1 9cbd a2fc 623d 1693 89bd 8192 87bd
00000020: ca0b 46c2 3af4 ccbd 725b 30bd d318 f63a
00000030: 4ce1 e3bc 8b83 073d 6fd2 d3bb 2333 5a3f
00000040: a200 16bd 2583 013c 7d71 f23c 3032 b5bc
00000050: ea03 fdbc 7a15 9f42 c859 9fc1 231a 15bd
00000060: 25dd 8442 101b 15c0 0113 1841 0e8c 4242
00000070: e5d9 e8bb a1fb fdbc dc8f 8abd 3002 92bd
00000080: 9746 3942 b6b6 4fc2 8800 35bd 7903 1dc2
00000090: 81d6 4642 b290 693c 0b43 8140 89eb 21bc
000000a0: f7e6 13bd 294d 0d3c 4acb 46c2 587d 1cc2
000000b0: b4ae 08bd 738f 6042 a435 a6bc 4714 98bb
000000c0: 65c1 093d b43b 4042 c82a 4f42 73c2 49bd
000000d0: 0142 033b 382c 343b 64a7 65bd 2494 ab3c
000000e0: b7e0 223d 5e9f 42bd 219a 6cc2 6400 33c2
000000f0: 60a1 11bd 78c4 0dc2 8c89 2abd 5297 78bd
00000100: 31b8 43bd 7711 3fc2 5f6a 7d3c c5e1 f3c1
00000110: e242 823c 5e3f 623c 401e a142 e297 d6bb
00000120: a0d1 84bd c6a9 5dbd 2309 6ebd 85d4 bcc1
00000130: 3761 9a3d af60 8741 5ca9 b3bd 91ec 2dbd
00000140: 5f5f 1ebd 6b54 8341 3ebd c3bd 37c3 81bd
00000150: 1ac0 d1c1 a33a 0042 f089 9dbc 38f1 d140
00000160: 5aaf cfba 54cd 96bd 3ecd 8441 3958 59bd
00000170: 448e edc1 6393 1342 4efa 28bd 7d99 91bd
00000180: a3d5 a7bb b10a 42bd 6527 5cbd c1d0 bac1
00000190: 1325 4642 8418 1642 1840 c6bd e850 82bd
000001a0: f0ba 26bb ff03 82bd 0a4a 4842 4dab 3f42
000001b0: 9f67 18bc 1822 7bc2 6f05 c03c 5b36 e83f
000001c0: 7ebc 6342 d25b 83c1 7cc9 78bd 6495 65c2
000001d0: 6500 b4bd 645c dcbc e6e0 6a42 5af3 edbd
000001e0: 7efe 973f d8d2 61bd 147d 88c2 6a33 3b3d
000001f0: e7dd 7f40 4302 c4c1 730a b9bd 40ad b2bc
00000200: f13d 043d 08e5 6342 b671 f9c0 fb4e df3c
00000210: 4804 ffbc bceb 87bd 6bb6 3942 d3ff 21c2
00000220: 495c 44c0 7bee 63c2 9d60 90bd 20b7 d33c
00000230: e0ab 3742 0dff 7a42 b055 f5bd 46b6 73bd
00000240: bc23 2a42 2a2e 26bd 302a 7cbc 93a8 6d3c
00000250: 5ae8 3cbe 1171 8abd e826 53c2 38d2 54bd
00000260: 74ea aa41 8216 6ebd a048 dcbb 1e36 cc41
00000270: b90d 70bc 8bb7 7442 5139 b03c 3e41 80bd
00000280: b1ce a13c 1c24 48bd 92fc 99bd 3ef0 0ebd
00000290: 75b6 43c2 b492 a3bd 8b1b c03c 28ef 5942
000002a0: d4bc 75c2 8344 12c2 edd6 4742 439b 70bf
000002b0: 791a ab3c dd6c 84bd f7bc 8fc2 6ad2 bb3d
000002c0: 8ce2 44c2 8e4a 0142 d42f 16bd c264 8dbd
000002d0: 80da 21bd 88f2 ca3b 5d34 99bd d0bf 83bd
000002e0: 21f1 ddbd 89e4 e341 42a5 84c2 da9c 2ec2
000002f0: 1fe2 213e 13db f63f c617 323d ad7a 54bd
00000300: 623d 53bd 98c6 2d42 83ff 3ec0 7148 83bd
00000310: 9cf3 8942 a69a a9bd 8e7b df3c e955 053d
00000320: a70c b2bd f52d 113c 427a 9bbd 993d 9d42
00000330: 7120 6f42 c11f 7740 8505 29c2 4c90 943f
00000340: 5603 4cbd 9302 8241 cb73 50bd 5d44 1b3d
00000350: 16f1 0d42 18c8 fabc 9975 79bc 8208 78bd
00000360: e6bf 0742 805a 43bd 8490 2bbd f8f6 4342
00000370: 0647 dcbc 9d39 5fbd 4335 e2c1 9ccd 38bd
00000380: 0768 c7c1 2bc6 303b 54b3 6741 e305 04c2
00000390: fe4b 33bd 2c8b 14be c187 7041 a988 81bd
000003a0: 0ef9 483f d1e4 2ec2 cb22 b5bd d69a 2c41
000003b0: 541e 1abc 012a 48bd e7c7 44bd 13df 8bc1
000003c0: f37b 353d 473b 5c3c 6c93 de3c e65c 2ac2
000003d0: 3cb7 763c 5bdd 74bb c629 f93c bb36 aa3c
000003e0: 03a6 eebb f4ca 69ba b6d5 2242 2896 fb41
000003f0: 1bcb 64bd a03a b0c1 becf 2a3d dda7 f63c

4.weight f4 [256, 256]
0.017819876 1.5038491 -0.042871118 0.20262223 -0.07832042 0.057003334 -0.027678732 0.076289006
-0.47534865 0.08095534 0.058077656 -0.04941163 0.04727708 -0.04196052 -0.06051938 -0.022316746
-0.057711605 -0.0006375733 0.029413134 0.045751072 -0.036320783 0.13504839 0.009587736 0.014926228
0.23836984 0.23185872 -0.022720784 0.14967225 0.06749292 -0.016909469 -0.08663308 -0.026385553
0.42284754 -0.37448525 -0.033430245 -0.27001277 0.8530033 0.023186024 -0.06439595 -0.0047482946
-0.067191385 -0.05085436 -1.1785358 0.08340631 -0.051228356 1.2680765 0.019982463 -0.053567804
0.019448025 0.08161548 0.53361607 -0.044377886 -0.026738413 -0.029875327 0.007058076 0.07650004
-0.056539368 0.0138095375 0.014157922 0.15907353 0.025466211 -0.14734142 -0.052939244 -0.02116845
-0.0007482695 -0.78495044 0.050598104 0.02924844 -0.007196759 0.011396697 -0.07890811 0.000613685
0.08073569 -0.064651825 -0.049369704 -0.018692655 -0.011017609 0.66134626 -0.09512856 -0.05957883
-0.030656315 -0.39185318 -0.0106570395 -0.043276496 0.22656086 2.162512 -0.045467287 0.004702027
0.12277486 -0.038864538 0.5975048 0.049468588 -0.027475823 0.17169778 -0.024938423 0.024281291
-0.00020823628 -0.06676321 0.017545862 0.09896897 0.47709268 -0.10150913 -0.03983551 0.08909847
-0.08321941 0.027641239 0.18726294 0.29498306 -0.010717624 -0.24794795 -0.042751864 0.0027985063
0.39696202 0.8756811 0.062089954 -0.038298436 0.0021905724 -0.06658008 0.23367853 -0.0056710867
0.057349812 0.022462362 -0.023739796 -0.012733996 0.051178206 -0.5888229 0.05276112 0.088799514
-0.027275177 0.45576945 -0.13669696 0.06527013 -0.08194179 -0.035836797 -0.3730977 -0.37451103
-1.5963346 0.03456481 -0.08705085 0.0031792454 0.60237366 -0.23573188 0.0060446756 0.03683288
0.16289815 -0.07458554 0.0059276223 -0.014826269 -0.24859992 -0.020923903 -0.13933952 0.029300928
0.27618143 -0.023238352 0.040499114 0.15702285 -0.010871303 0.07767914 0.051664032 0.08948959
0.013674634 0.012553813 -0.034025647 -0.033476938 -0.45344397 -0.023857446 -0.0075413943 -0.14974345
0.24719684 -0.038435422 -0.01824979 -0.015755855 0.0786162 -0.044378676 0.9003041 0.017763905
-0.29253057 3.9782221 0.030622276 0.040299043 0.038340636 0.007365973 -0.044676565 -0.07876219
-0.040020596 -0.40664896 -0.9415617 0.05269739 0.090768605 0.011929189 0.02437259 -0.050860014
0.057066333 3.0129597 -0.5994896 -0.027906422 0.7596489 -0.03171452 -0.030413046 0.066412516
0.06354843 -0.0064215213 -0.035291307 0.08866421 0.09406518 0.0021534446 0.026440255 0.074123755
0.011305622 -0.833297 0.009294988 0.010342546 0.24769962 -0.04520203 -0.05582027 0.020642878
0.034783546 -0.002301815 -0.045382656 0.002191545 -0.0210395 0.034962412 -0.2846658 -0.010896832
0.007632959 -0.031294856 -0.019057594 -3.686407 -0.0039124745 -0.025940841 -0.018906001 0.012939624
0.16695462 -0.8174288 0.038892798 -0.17966539 -0.06318046 0.016463244 -0.04259591 -0.17530411
0.013554756 -0.036626846 -0.02919089 -0.22484995 0.07586923 0.038124308 -0.010789996 -0.035672598
-0.012656243 -0.03005673 0.17217197 0.25608546 -0.06427578 -0.06638861 0.042468507 -0.091492
00000000: fdfa 913c 217e c03f a099 2fbd 347c 4f3e
00000010: 7566 a0bd 547c 693d 82be e2bc 693d 9c3d
00000020: e660 f3be eacb a53d d6e2 6d3d d963 4abd
00000030: 9da5 413d cbde 2bbd 2be3 77bd 9cd1 b6bc
00000040: 0163 6cbd d222 27ba d0f3 f03c 7a65 3b3d
00000050: 1ac5 14bd 204a 0a3e e115 1d3c 238d 743c
00000060: 3917 743e 5f6c 6d3e f020 babc af43 193e
00000070: ba39 8a3d ba85 8abc af6c b1bd 8426 d8bc
00000080: 797f d83e 88bc bfbe 27ee 08bd 1d3f 8abe
00000090: 6d5e 5a3f 9ef0 bd3c 06e2 83bd 9597 9bbb
000000a0: a39b 89bd a94c 50bd 43da 96bf edd0 aa3d
000000b0: d3d4 51bd 5550 a23f 43b2 a33c ea69 5bbd
000000c0: 7751 9f3c 0426 a73d 109b 083f 96c5 35bd
000000d0: 840a dbbc 1abd f4bc 6f47 e73b 0eac 9c3d
000000e0: d395 67bd 6641 623c a1f6 673c 2ce4 223e
000000f0: 849e d03c abe0 16be d2d6 58bd 7569 adbc
00000100: 8427 44ba 83f2 48bf f53f 4f3d 6d9a ef3c
00000110: cad2 ebbb 36b9 3a3c 939a a1bd b4df 203a
00000120: c158 a53d 2d68 84bd e337 4abd 5721 99bc
00000130: 3483 34bc fd4d 293f c3d2 c2bd ee08 74bd
00000140: f422 fbbc fba0 c8be dd9a 2ebc b242 31bd
00000150: 92ff 673e 9966 0a40 e83b 3abd 7613 9a3b
00000160: 6371 fb3d 6c30 1fbd 13f6 183f 939f 4a3d
00000170: fa14 e1bc 8bd1 2f3e aa4b ccbc 8fe9 c63c
00000180: 005a 5ab9 26bb 88bd 57bc 8f3c 3eb0 ca3d
00000190: 7e45 f43e 05e4 cfbd 8f2a 23bd 4279 b63d
000001a0: f06e aabd e16f e23c dbc1 3f3e 0508 973e
000001b0: f998 2fbc 11e6 7dbe 941c 2fbd 2567 373b
000001c0: 9b3e cb3e a32c 603f 0952 7e3d d2de 1cbd
000001d0: b58f 0f3b 235b 88bd 6d49 6f3e 86d4 b9bb
000001e0: a3e7 6a3d fd02 b83c f679 c2bc 40a2 50bc
000001f0: 3da0 513d 19bd 16bf 0b1c 583d 85dc b53d
00000200: 3170 dfbc 9d5a e93e 4afa 0bbe 59ac 853d
00000210: 19d1 a7bd 9bc9 12bd a906 bfbe e9bf bfbe
00000220: b154 ccbf d593 0d3d b747 b2bd e35a 503b
00000230: 2935 1a3f b363 71be 6a12 c63b 13de 163d
00000240: c6ce 263e 4ec0 98bd 803c c23b e1e9 72bc
00000250: fa90 7ebe 9b68 abbc 05af 0ebe 8008 f03c
00000260: a767 8d3e 5b5e bebc 66e2 253d 99ca 203e
00000270: 8d1d 32bc 3e16 9f3d aa9d 533d 5146 b73d
00000280: 920b 603c 82ae 4d3c 7a5e 0bbd 1d1f 09bd
00000290: cf29 e8be b170 c3bc cd1d f7bb 5956 19be
000002a0: 2b21 7d3e 766e 1dbd 9580 95bc 6c12 81bc
000002b0: 8801 a13d 6ac6 35bd 547a 663f 9c85 913c
000002c0: 91c6 95be 319b 7e40 91db fa3c 9c10 253d
000002d0: 120b 1d3d 435e f13b c6fe 36bd 124e a1bd
000002e0: a3ec 23bd 4b34 d0be 300a 71bf 38d9 573d
000002f0: e4e4 b93d a572 433c 07a9 c73c 9752 50bd
00000300: 63be 693d 55d4 4040 2778 19bf 029c e4bc
00000310: 5a78 423f 16e7 01bd c824 f9bc 4903 883d
00000320: ae25 823d a06b d2bb 9e8d 10bd 9595 b53d
00000330: 3fa5 c03d ce20 0d3b 3c99 d83c 32ce 973d
00000340: 373b 393c f452 55bf 014a 183c c873 293c
00000350: f8a4 7d3e c425 39bd cca3 64bd 411b a93c
00000360: 3179 0e3d 0cda 16bb 2ae3 39bd 06a0 0f3b
00000370: 085b acbc bf34 0f3d b7bf 91be a088 32bc
00000380: e71d fa3b 092f 00bd ac1e 9cbc 18ee 6bc0
00000390: 3734 80bb e381 d4bc c2e0 9abc b700 543c
000003a0: 27f6 2a3e 0443 51bf 0e4e 1f3d 34fa 37be
000003b0: c264 81bd eddd 863c 0d79 2ebd ec82 33be
000003c0: c414 5e3c 0806 16bd bc21 efbc 113f 66be
000003d0: 5461 9b3d 3c28 1c3d 86c8 30bc 6e1d 12bd
000003e0: 215c 4fbc 8839 f6bc d94d 303e a21d 833e
000003f0: 05a3 83bd c0f6 87bd 75f3 2d3d 2860 bbbd

4.bias f4 [256]
42.677357 29.536993 43.931614 -4.140839 -0.080531426 -0.010476559 -0.09744315 -0.0687029
38.20371 -2.9644134 -0.05158956 29.270878 13.672656 -0.051283516 -0.05609357 -0.086776145
-0.12979272 -0.05437305 -0.05502478 -0.030991001 14.123711 44.143414 -0.012231386 -0.007977984
-0.07544453 -49.03235 26.937449 2.224139 -0.07001945 7.6843114 -0.09310958 -0.04511644
-0.06776606 -0.043411095 43.512676 -0.0834346 -50.31495 -3.1593893 -0.038038213 0.034314133
0.03989635 39.24899 0.0020952972 4.9511967 17.932701 41.91968 3.5246928 -0.086767875
-0.051690787 22.390154 -0.06926097 -0.086499296 -0.0044830833 -0.010875216 -0.07184088 -0.10085125
10.424744 28.486097 -0.0020272448 1.8009683 -0.11216091 -0.018508682 23.50402 -0.066580236
-1.1752445 -0.08466428 -0.0036219903 -0.034538176 61.2197 44.12321 52.645493 -0.07231243
-0.055724718 -0.052995548 29.364372 0.020256696 -67.23248 -0.046345614 18.063223 -0.08029121
-0.11927339 -0.07917215 -0.052063502 0.0014009159 0.01035669 -0.08684183 38.612644 34.971237
36.199924 20.242142 48.422283 2.920094 26.37892 -0.0930249 3.1440282 0.09635791
-0.024589501 -2.6886487 -0.073787816 -0.06339634 29.30652 79.138306 -0.06389844 -0.023668613
-0.055015128 18.54123 -0.11191568 17.891102 52.339596 -0.072961494 13.851262 37.20556
3.5659442 43.542847 0.21962659 3.4526188 -0.016538475 -0.04452733 0.0011638125 25.372145
7.396904 -8.995309 3.4618776 71.02583 23.27807 -0.09577742 0.019819451 -13.851721
-0.095114 0.22337793 2.8041658 -66.87273 27.51717 4.4568167 43.613743 -0.022543838
30.176817 37.243896 -0.08169644 26.689837 35.142483 -22.254915 -0.051037695 -0.0067224842
-0.005592719 -0.014015332 -0.0035348984 -0.059118032 -56.510048 -0.07643952 36.93835 -0.011678398
-0.07796599 0.012667072 48.439854 -1.2494624e-05 0.04242305 -0.043295637 -0.002922028 18.43408
-0.088117644 11.299957 0.040339485 -0.06849884 0.005195125 -0.09969221 -29.106747 20.104797
-57.84278 -0.050588205 -0.03762838 -0.054403394 7.4799523 27.395649 38.523533 17.274195
-0.014070124 -0.021765335 36.765514 30.066792 -0.05795379 35.08949 -36.989525 -0.08923286
19.467285 4.5119543 -0.098099105 -0.021867527 0.039260883 49.95478 0.6558853 35.11594
29.311726 -0.043530278 -27.606085 0.07136455 -0.8814238 0.071815066 -0.00029436726 -0.07284288
11.635157 -0.08709389 -0.052348785 -0.052771114 0.25397617 35.076904 -0.0018250464 23.282627
57.76146 32.216534 47.164597 -0.0675341 14.720636 -0.04270595 -0.07215802 0.028896531
-0.24466585 -32.798977 17.56795 -0.054038778 0.039093457 -0.043611992 19.06037 0.45797765
-0.071663626 34.51191 -0.05221193 38.12976 24.409292 50.391808 0.036293145 6.1005125
0.012300274 32.431637 29.41089 -0.091237284 38.547367 -0.060284674 10.387416 23.269146
26.45724 1.6844329 -0.012904009 2.2957967e-05 16.355543 -0.0633229 39.714363 0.019766366
20.849127 1.9296395 0.0063353283 -0.07230696 -4.5481615 -59.1041 -39.44563 -58.06987
00000000: 9db5 2a42 c34b ec41 f9b9 2f42 c181 84c0
00000010: a9ed a4bd e0a5 2bbc 4690 c7bd 1bb4 8cbd
00000020: 99d0 1842 f3b8 3dc0 934f 53bd c22a ea41
00000030: 33c3 5a41 aa0e 52bd 5fc2 65bd b1b7 b1bd
00000040: 62e8 04be 46b6 5ebd aa61 61bd d7e0 fdbc
00000050: b8fa 6141 db92 3042 2766 48bc 17b6 02bc
00000060: a982 9abd 2021 44c2 e57f d741 4b58 0e40
00000070: 5b66 8fbd e1e5 f540 3cb0 bebd 04cc 38bd
00000080: efc8 8abd d5cf 31bd fb0c 2e42 c2df aabd
00000090: 8242 49c2 6f33 4ac0 f5cd 1bbd fa8c 0c3d
000000a0: 5b6a 233d f7fe 1c42 4151 093b 3470 9e40
000000b0: 2c76 8f41 c1ad 2742 9194 6140 5bb3 b1bd
000000c0: b8b9 53bd 091f b341 b2d8 8dbd 8b26 b1bd
000000d0: d4e6 92bb f62d 32bc 5021 93bd 1a8b cebd
000000e0: c0cb 2641 87e3 e341 86db 04bb 2186 e63f
000000f0: 9fb4 e5bd 859f 97bc 3c08 bc41 385b 88bd
00000100: 696e 96bf 7764 adbd ea5e 6dbb e777 0dbd
00000110: f9e0 7442 2b7e 3042 fc94 5242 8a18 94bd
00000120: 9a3f 64bd dc11 59bd 3cea ea41 5ff1 a53c
00000130: 0877 86c2 e6d4 3dbd 7b81 9041 b86f a4bd
00000140: 9b45 f4bd 0225 a2bd 8a40 55bd f09e b73a
00000150: 1baf 293c 21da b1bd 5973 1a42 8ce2 0b42
00000160: b9cc 1042 e8ef a141 6bb0 4142 d2e2 3a40
00000170: 0708 d341 d783 bebd c237 4940 4c57 c53d
00000180: ec6f c9bc d212 2cc0 111e 97bd f1d5 81bd
00000190: c173 ea41 d046 9e42 2fdd 82bd aee4 c1bc
000001a0: 8b57 61bd 7054 9441 0c34 e5bd fa20 8f41
000001b0: bf5b 5142 d66c 95bd c59e 5d41 7ed2 1442
000001c0: 6e38 6440 e02b 2e42 cbe5 603e b5f7 5c40
000001d0: b27b 87bc 4a62 36bd 118b 983a 27fa ca41
000001e0: 70b3 ec40 c9ec 0fc1 678f 5d40 3a0d 8e42
000001f0: 7d39 ba41 f426 c4bd 675c a23c a6a0 5dc1
00000200: 21cb c2bd 2fbd 643e 7477 3340 d6be 85c2
00000210: 2a23 dc41 3e9e 8e40 7974 2e42 dbad b8bc
00000220: 1f6a f141 c0f9 1442 7750 a7bd c984 d541
00000230: e791 0c42 110a b2c1 e70c 51bd 4948 dcbb
00000240: 2143 b7bb 90a0 65bc c1a9 67bb c025 72bd
00000250: 4a0a 62c2 538c 9cbd dfc0 1342 c056 3fbc
00000260: a2ac 9fbd 8d89 4f3c 69c2 4142 00a0 51b7
00000270: cbc3 2d3d c456 31bd 7f7f 3fbb ff78 9341
00000280: 0677 b4bd a0cc 3441 043b 253d 1f49 8cbd
00000290: de3b aa3b 6e2b ccbd 9eda e8c1 a0d6 a041
000002a0: 025f 67c2 9435 4fbd 3720 1abd 18d6 5ebd
000002b0: c55b ef40 4a2a db41 1918 1a42 8d31 8a41
000002c0: 6186 66bc 374d b2bc e30f 1342 ca88 f041
000002d0: f460 6dbd a35b 0c42 46f5 13c2 b8bf b6bd
000002e0: 00bd 9b41 ee61 9040 2fe8 c8bd 8723 b3bc
000002f0: 05d0 203d b2d1 4742 19e8 273f b976 0c42
00000300: 6a7e ea41 ce4c 32bd 43d9 dcc1 9427 923d
00000310: fda4 61bf c713 933d 4e55 9ab9 a62e 95bd
00000320: 9a29 3a41 485e b2bd ae6b 56bd 8626 58bd
00000330: 2a09 823e c04e 0c42 6536 efba d242 ba41
00000340: bc0b 6742 bbdd 0042 8ca8 3c42 514f 8abd
00000350: ba87 6b41 6fec 2ebd 96c7 93bd 6bb8 ec3c
00000360: af89 7abe 2732 03c2 298b 8c41 c457 5dbd
00000370: 7620 203d 7da2 32bd a37b 9841 0c7c ea3e
00000380: 61c4 92bd 320c 0a42 2ddc 55bd e084 1842
00000390: 3b46 c341 3691 4942 1fa8 143d 6637 c340
000003a0: 1787 493c ffb9 0142 8149 eb41 9dda babd
000003b0: 8130 1a42 10ed 76bd db32 2641 3627 ba41
000003c0: 6da8 d341 7f9b d73f 566b 53bc dc95 c037
000003d0: 27d8 8241 70af 81bd 82db 1e42 13ed a13c
000003e0: 03cb a641 6dfe f63f 9698 cf3b ac15 94bd
000003f0: 8a8a 91c0 996a 6cc2 53c8 1dc2 8c47 68c2

6.weight f4 [256, 256]
-0.029364709 -0.05386731 0.0026125044 -0.25949702 -0.027745262 0.04442984 0.00427495 0.042955633
0.40422663 -0.025906041 -0.053385265 0.6415772 0.012331151 0.03550116 0.0075134635 -0.027674802
0.039743464 0.056222983 -0.08930757 0.022014879 -6.394284 -0.4052284 -0.054839477 -0.030681273
0.008031244 -1.0416371 -0.04689259 0.16295162 0.020205732 -0.08083134 -0.006382944 0.014655244
0.03793502 -0.032767143 0.17710859 0.05251733 1.8814077 0.9651847 -0.006055781 -0.0020655824
-0.027340027 0.6700876 0.0020774344 2.0760064 0.51844895 0.0170516 -0.0052305334 0.09050093
-0.055449672 -2.557915 -0.015598707 -0.042689167 0.035222493 -0.0007077876 -0.02650209 0.042477608
0.11572931 0.70299774 0.025630498 0.22222172 0.020379009 -0.023769129 -0.11259097 -0.03420785
0.3238951 0.022346066 -0.0105093885 0.06694626 -0.30565488 -1.7320693 -0.2503472 0.014055548
-0.0019635484 0.03784315 -0.6230842 -0.046711244 0.6247697 0.03963679 0.80774045 0.020531079
0.024991058 -0.021307591 -0.0403369 0.014439461 -0.025485726 -0.012545434 0.057630744 0.0768946
-1.9282184 0.35397145 0.021808611 -1.2927119 0.39642328 0.030063195 -0.12987751 -0.027363721
-0.053464614 0.3519386 0.059840616 0.03425017 0.11107848 -5.575698 -0.10674482 0.09899227
-0.018960023 0.2879851 -0.08171237 0.21328484 1.4083027 0.024085984 1.1063085 0.0015632827
-0.07851737 0.19329274 0.02841125 -3.202192 0.061538607 0.034285627 0.015552878 0.012022295
0.8274653 1.1026899 0.42844683 -0.9315753 0.09416061 -0.095524274 -0.011483049 0.015143329
0.08087649 -0.2717811 -0.18517439 -0.33466297 -0.31502315 -0.4551193 0.450062 -0.015568663
0.1492193 -0.041366566 -0.058873527 0.042576708 -0.0348661 -4.9624743 0.0509133 -0.029351857
0.012435519 0.027609266 -0.079333 0.09614469 -2.3356798 0.015333086 0.297498 -0.061831858
0.046687737 0.010949556 0.25989848 -0.026559105 0.05706861 -0.095319964 -0.0015647837 0.39197847
-0.05365926 -4.832351 -0.0006466515 0.05248575 -0.028007952 -0.050185002 -1.1894087 0.20217757
-0.077478126 -0.042448267 -0.045956925 0.021664307 1.3829849 0.29576084 0.14825551 -0.33180776
-0.0635234 0.025010139 -0.0054385904 -1.7880689 0.022515148 0.018289639 -2.6740735 -0.058441475
-0.14213617 0.13700631 0.0069348384 0.066386975 -0.043396518 0.6198287 0.8280669 -0.19387329
-0.119855866 0.033975225 2.060896 0.009152283 -0.5930023 0.050172422 -0.05441867 -0.006552093
0.34683844 -0.028311027 -0.00404467 0.055679664 0.24845815 0.24853013 0.12311874 -0.012222637
-1.5848188 0.106674016 0.6267211 0.033197433 -12.701683 -0.0032289051 -0.010942434 0.0541607
-0.08909098 -0.5643255 1.155822 -0.00981798 0.033663426 -0.10155348 0.025154365 0.1438848
-0.010829552 0.093139656 0.031148212 0.4907402 0.11409138 0.43553504 -0.020177664 0.4533753
0.030572377 0.2716045 -0.08176883 0.04862165 -0.024034418 0.004099746 -0.09168662 0.09916403
0.16003875 0.28298187 -0.07900143 0.06280505 0.14952172 0.0338774 -0.60860485 0.009847285
-6.5258384 0.24591866 -0.019549318 0.05804268 0.088263504 0.4973003 0.95970845 -1.5622348
00000000: 428e f0bc f8a3 5cbd 8d36 2b3b cbdc 84be
00000010: 084a e3bc 10fc 353d e114 8c3b 3ff2 2f3d
00000020: cbf6 ce3e e838 d4bc 82aa 5abd 673e 243f
00000030: 9908 4a3c aa69 113d 8033 f63b 44b6 e2bc
00000040: 0bca 223d 124a 663d e3e6 b6bd 8c58 b43c
00000050: f99d ccc0 197a cfbe 5c9f 60bd 4b57 fbbc
00000060: 7b95 033c 5d54 85bf 7212 40bd cadc 263e
00000070: 7e86 a53c e78a a5bd 0428 d1bb 8c1c 703c
00000080: c061 1b3d d736 06bd f45b 353e 691c 573d
00000090: f8d1 f03f 5816 773f 936f c6bb b95e 07bb
000000a0: 31f8 dfbc dc8a 2b3f 9125 083b 4add 0440
000000b0: 12b9 043f ccaf 8b3c e564 abbb 8d58 b93d
000000c0: 321f 63bd e1b4 23c0 b891 7fbc d6da 2ebd
000000d0: 7645 103d d28a 39ba e91a d9bc 00fd 2d3d
000000e0: 7d03 ed3d a9f7 333f 0df7 d13c 178e 633e
000000f0: e1f1 a63c 7ab7 c2bc 1896 e6bd 881d 0cbd
00000100: 94d5 a53e 190f b73c 922f 2cbc 1f1b 893d
00000110: cc7e 9cbe 72b4 ddbf 822d 80be 3e49 663c
00000120: e0ae 00bb 6b01 1b3d 7282 1fbf 4a54 3fbd
00000130: e8f0 1f3f 305a 223d 14c8 4e3f cb30 a83c
00000140: 0cba cc3c 428d aebc 4e38 25bd 7d93 6c3c
00000150: 71c7 d0bc 5d8b 4dbc 370e 6c3d eb7a 9d3d
00000160: dccf f6bf bf3b b53e f9a7 b23c 9577 a5bf
00000170: fef7 ca3e 1747 f63c 9cfe 04be e229 e0bc
00000180: b6fd 5abd 4c31 b43e 6f1b 753d e849 0c3d
00000190: 1d7d e33d 1e6c b2c0 079d dabd 76bc ca3d
000001a0: 0d52 9bbc c872 933e d158 a7bd 5767 5a3e
000001b0: 4343 b43f f84f c53c 849b 8d3f 10e7 cc3a
000001c0: b7cd a0bd 88ee 453e b6be e83c b7f0 4cc0
000001d0: e80f 7c3d 166f 0c3d 80d1 7e3c 29f9 443c
000001e0: c4d4 533f f124 8d3f 625d db3e b87b 6ebf
000001f0: 47d7 c03d 3ba2 c3bd 6623 3cbc ba1b 783c
00000200: 93a2 a53d e426 8bbe 5b9e 3dbe f258 abbe
00000210: b74a a1be 6605 e9be 876e e63e b513 7fbc
00000220: f2cc 183e fd6f 29bd 5e25 71bd ea64 2e3d
00000230: c1cf 0ebd 97cc 9ec0 778a 503d 4e73 f0bc
00000240: 59be 4b3c d42c e23c 5779 a2bd 82e7 c43d
00000250: c77b 15c0 a037 7b3c a851 983e 6743 7dbd
00000260: a43b 3f3d c465 333c 6a11 853e 7b92 d9bc
00000270: c6c0 693d 1d37 c3bd 6e19 cdba 67b1 c83e
00000280: d0c9 5bbd 9fa2 9ac0 0c84 29ba 4cfb 563d
00000290: ef70 e5bc ca8e 4dbd 8b3e 98bf a307 4f3e
000002a0: daac 9ebd 3cde 2dbd 543d 3cbd 5879 b13c
000002b0: a605 b13f f76d 973e 4bd0 173e b5e2 a9be
000002c0: 8e18 82bd 10e2 cc3c 3436 b2bb 71df e4bf
000002d0: b071 b83c 27d4 953c 0524 2bc0 5460 6fbd
000002e0: 258c 11be 624b 0c3e a43d e33b e5f5 873d
000002f0: 8cc0 31bd 18ad 1e3f 31fc 533f b886 46be
00000300: fe76 f5bd 9b29 0b3d b8e5 0340 75f3 153c
00000310: 00cf 17bf 9981 4d3d 1ce6 5ebd f1b2 d6bb
00000320: cf94 b13e 87ec e7bc 2789 84bb 5c10 643d
00000330: d06b 7e3e af7e 7e3e ae25 fc3d 7541 48bc
00000340: 58db cabf e877 da3d cb70 203f 08fa 073d
00000350: 183a 4bc1 0a9c 53bb e547 33bc 9cd7 5d3d
00000360: 5575 b6bd a377 10bf faf1 933f 98db 20bc
00000370: a9e2 093d 45fb cfbd 8710 ce3c 8956 133e
00000380: 6f6e 31bc 01c0 be3d 892a ff3c 4d42 fb3e
00000390: bea8 e93d 73fe de3e a14b a5bc cf20 e83e
000003a0: ec72 fa3c bf0f 8b3e 6b76 a7bd 7f27 473d
000003b0: d4e3 c4bc 2957 863b 32c6 bbbd 8316 cb3d
000003c0: 33e1 233e 00e3 903e 80cb a1bd ef9f 803d
000003d0: 391c 193e 07c3 0a3d 87cd 1bbf 8256 213c
000003e0: abd3 d0c0 1ad2 7b3e e425 a0bc 29be 6d3d
000003f0: 7fc3 b43d 259e fe3e 74af 753f 4ff7 c7bf

6.bias f4 [256]
-44.16376 0.030441787 0.003571986 0.01545875 -0.06207696 35.798615 -0.079433754 -0.0030994234
21.454853 -0.054392748 0.03531011 36.27478 -0.05739395 -7.5437465 36.451332 40.18576
34.24121 36.336216 0.011182927 -16.397202 40.117126 -0.056994513 44.369038 -0.058642592
43.91338 18.855341 30.14922 44.233948 -0.0062535373 -0.0009760401 -1.4934213 -0.076672964
33.03562 -0.069309086 -0.07745449 -0.0449371 37.240086 -6.2493706 35.162777 -0.06302765
0.037065577 -8.57943 -0.07728157 -0.074404806 37.350254 -0.028338846 33.163612 51.52169
56.35417 44.275524 49.06563 -0.028129393 30.550167 -0.051812153 -0.07968203 37.824085
0.019656096 -0.03313413 -0.042680465 -0.009267882 -0.081315964 -0.021099018 -0.06571187 -0.10650431
-0.08389121 -0.045733303 32.689438 -0.018278621 0.18558049 -0.009681115 -0.030717857 0.0026697314
-40.181427 28.309685 43.32138 0.003248495 -20.384533 28.899984 -0.003214192 -0.08923683
0.016471416 0.005115359 -0.05303558 -0.02647324 63.91881 -0.039043795 -0.10337296 4.4963727
-1.8293928 29.460463 40.332634 -0.06120906 -0.09906514 34.49339 -10.5068 0.026169669
5.5854754 -5.910955 41.98683 -0.13145259 -51.441677 -0.05983885 0.0025453414 -0.013870934
30.666372 -0.041126765 -0.023511799 26.35999 32.15422 11.415231 -0.0035003845 0.51856196
67.70399 -0.05020568 0.012314567 32.121597 -0.009038448 35.094574 -0.088260725 0.033808842
-0.010112397 -0.0036953555 13.455818 -0.0019466996 40.393707 -0.037923697 36.8252 28.145771
-0.04606887 -0.06307693 56.15031 0.0208649 -0.00938062 -7.0020413 -0.00404647 -0.08312799
-0.04902466 -0.041968215 33.566063 -0.03516475 -0.04308846 -0.0038339146 -0.011318689 0.015857525
32.612823 -0.019206982 44.09647 0.03394708 0.0343895 -0.010834239 -0.022810517 9.954702
-0.0597313 25.754147 43.52773 0.12346555 25.445515 25.331041 -0.007199892 0.8357449
0.022968344 37.60525 -0.03891968 -0.03829029 -0.0048857597 33.377922 31.08967 0.003646691
-0.060763404 35.337395 19.470747 -0.031228213 -0.002726651 -0.027885783 -0.08407067 -0.02175692
-0.07266305 -0.027504703 -0.06757603 -0.03746395 -0.049580663 -0.03830168 -0.0399755 36.253586
-0.07972034 0.037528187 -0.032729946 14.160782 -0.030253349 -0.09395413 33.083794 0.044058725
-6.4527164 0.0072878124 0.010727926 0.017208165 0.0082849655 10.723679 -0.06432906 0.013688791
32.068317 48.98069 -0.06864497 0.0135916155 0.05714473 -2.9284863 35.69292 -44.991
-0.018885076 -0.0897669 -0.0019698953 -2.669148 0.01151019 -0.05966807 -0.110178456 20.79599
0.03209717 38.875324 45.806557 0.012721253 39.173615 -0.011663849 0.028371798 0.02278095
-0.023319364 -0.096862175 32.922993 -0.001717711 -0.038993217 -0.069542445 0.029979784 30.342058
45.63335 -8.163671 -0.023242418 32.08385 35.02544 36.483288 0.034903225 0.026944088
40.664948 0.009349639 37.843945 0.022993049 -0.0026346706 36.54744 -0.08258558 -0.054327745
-0.026229685 -0.06964985 0.020678766 32.6862 0.29509 -0.02797751 -0.07927519 6.558805
00000000: b1a7 30c2 0e61 f93c fb17 6a3b b246 7d3c
00000010: 6944 7ebd c831 0f42 2aae a2bd b21f 4bbb
00000020: 8aa3 ab41 eeca 5ebd 55a1 103d 6019 1142
00000030: eb15 6bbd 5f66 f1c0 2ace 1142 38be 2042
00000040: 00f7 0842 4958 1142 9838 373c 782d 83c1
00000050: f077 2042 1473 69bd e579 3142 3733 70bd
00000060: 4da7 2f42 bdd7 9641 9a31 f141 90ef 3042
00000070: 79ea ccbb f1dc 7fba 6e28 bfbf b706 9dbd
00000080: 7a24 0442 ecf1 8dbd 76a0 9ebd f70f 38bd
00000090: d9f5 1442 d8fa c7c0 afa6 0c42 a414 81bd
000000a0: 13d2 173d 5845 09c1 cd45 9ebd 8c61 98bd
000000b0: a966 1542 de26 e8bc 8aa7 0442 3616 4e42
000000c0: ac6a 6142 231a 3142 3543 4442 9d6f e6bc
000000d0: be66 f441 fb38 54bd 5530 a3bd dd4b 1742
000000e0: d205 a13c a7b7 07bd b6d1 2ebd 51d8 17bc
000000f0: fc88 a6bd d9d7 acbc f293 86bd ef1e dabd
00000100: 28cf abbd d852 3bbd fcc1 0242 0cbd 95bc
00000110: d008 3e3e 8a9d 1ebc 04a4 fbbc a9f6 2e3b
00000120: c8b9 20c2 3c7a e241 1849 2d42 b4e4 543b
00000130: 8613 a3c1 2b33 e741 32a5 52bb cdc1 b6bd
00000140: 10ef 863c be9e a73b d63b 59bd 69de d8bc
00000150: ddac 7f42 63ec 1fbd 34b5 d3bd 49e2 8f40
00000160: 8b29 eabf 07af eb41 9e54 2142 5ab6 7abd
00000170: aae2 cabd 3bf9 0942 da1b 28c1 c661 d63c
00000180: 37bc b240 8b26 bdc0 84f2 2742 829b 06be
00000190: 47c4 4dc2 9519 75bd becf 263b ea42 63bc
000001a0: bb54 f541 8a74 28bd d19b c0bc 42e1 d241
000001b0: ec9d 0042 c9a4 3641 b566 65bb 7ac0 043f
000001c0: 7168 8742 79a4 4dbd 0ac3 493c 847c 0042
000001d0: 0016 14bc d860 0c42 0ac2 b4bd 247b 0a3d
000001e0: 78ae 25bc c72d 72bb 084b 5741 6628 ffba
000001f0: 2893 2142 e155 1bbd 014d 1342 8a2a e141
00000200: b6b2 3cbd 7a2e 81bd eb99 6042 deec aa3c
00000210: 2cb1 19bc b910 e0c0 4098 84bb 023f aabd
00000220: 15ce 48bd dde6 2bbd a643 0642 ea08 10bd
00000230: 867d 30bd 6a42 7bbb 0672 39bc a4e7 813c
00000240: 8873 0242 f657 9dbc c962 3042 180c 0b3d
00000250: 01dc 0c3d 1882 31bc 1fdd babc 7646 1f41
00000260: cfa8 74bd 7e08 ce41 651c 2e42 82db fc3d
00000270: 6a90 cb41 f9a5 ca41 12ed ebbb 61f3 553f
00000280: 1c28 bc3c c76b 1642 3e6a 1fbd 47d6 1cbd
00000290: b918 a0bb fe82 0542 a5b7 f841 53fd 6e3b
000002a0: 0ce3 78bd 7e59 0d42 17c4 9b41 4fd2 ffbc
000002b0: 9db1 32bb ba70 e4bc 3e2d acbd 913b b2bc
000002c0: 5dd0 94bd 8b51 e1bc 4d65 8abd cd73 19bd
000002d0: 1815 4bbd 39e2 1cbd 5abd 23bd ac03 1142
000002e0: 6b44 a3bd 28b7 193d d60f 06bd 9092 6241
000002f0: dfd5 f7bc 066b c0bd ce55 0442 ec76 343d
00000300: a77c cec0 9ace ee3b 2fc4 2f3c 23f8 8c3c
00000310: aabd 073c 3094 2b41 f4be 83bd f346 603c
00000320: f545 0042 3aec 4342 bc95 8cbd 5eaf 5e3c
00000330: 9810 6a3d 526c 3bc0 8dc5 0e42 c9f6 33c2
00000340: e0b4 9abc b5d7 b7bd 5c19 01bb 52d3 2ac0
00000350: 3c95 3c3c 8266 74bd 3ea5 e1bd 305e a641
00000360: 5278 033d 5580 1b42 ea39 3742 cd6c 503c
00000370: c8b1 1c42 bb19 3fbc f96b e83c 1d9f ba3c
00000380: 4008 bfbc ad5f c6bd 25b1 0342 d124 e1ba
00000390: 5ab7 1fbd 456c 8ebd 2a98 f53c 89bc f241
000003a0: 8d88 3642 659e 02c1 e266 bebc dd55 0042
000003b0: 0d1a 0c42 e3ee 1142 aff6 0e3d d9b9 dc3c
000003c0: e8a8 2242 3a2f 193c 3360 1742 eb5b bc3c
000003d0: 70aa 2cbb 9430 1242 a122 a9bd c586 5ebd
000003e0: a3df d6bc 95a4 8ebd 8466 a93c abbe 0242
000003f0: 0916 973e 1731 e5bc 085b a2bd bbe1 d140
